src/ckpt/KuaiRec/stack_0.4256.pth (torch, 13572 bytes, 5 tensors)

base_model_projection.0.weight f4 [64, 7]
0.8938285 1.2922587 0.59887844 0.6540689 1.0036339 0.33383545 0.18430589 -0.24851783
0.2873487 0.3409383 0.16407348 0.21348092 0.13796018 -0.22715834 0.044595808 -0.16173625
0.15030438 0.11832125 0.093593895 0.11804748 -0.29763824 0.5962391 0.883559 0.23541778
0.33958685 1.3009862 0.6003214 0.10545675 0.6585196 1.1327282 0.09379982 0.07762191
1.2576182 0.5520662 0.15033652 -0.25824532 -0.13238981 0.10263474 0.10896402 -0.18503511
-0.18550551 0.17488493 -1.6366764 -1.6081095 -1.7535579 -1.6158185 -1.753467 -1.6636596
-0.02033437 -1.3723181 -2.1224997 -2.0739353 -2.1104023 -2.2489505 -1.8673023 -0.23822297
-1.9876767 -2.131109 -1.9773107 -1.8230711 -2.0615237 -1.7220643 0.008909162 -1.7404833
-1.8030657 -2.0701425 -1.9142823 -2.0364182 -1.8165312 0.01801726 -1.3176752 -2.154865
-2.3205194 -1.8621249 -2.0665083 -1.0481668 0.09153243 1.1180406 1.0924741 0.1404571
0.8059479 1.4770256 0.7324643 0.17058606 -1.4897352 -2.0534258 -2.2204583 -1.5166953
-2.0579526 -1.7224078 -0.02200648 0.7353113 0.9055556 0.1121231 0.2666726 1.0030408
0.28327745 -0.115044445 0.65831435 1.0093141 0.086867034 0.4421115 1.5294083 0.29376215
0.0019102612 -0.35898927 0.13488853 0.32391217 0.20841964 -0.37070206 0.36419111 -0.34680206
-1.9542415 -1.9745668 -2.256966 -2.1256216 -2.1636374 -1.7897311 -0.16727705 0.6919191
1.4160966 0.18232028 0.5452068 1.7106241 0.65762764 -0.1561119 -1.9495822 -1.9124548
-2.0280879 -1.7856506 -2.0852144 -1.7520444 -0.046810288 0.23807429 0.8141673 0.05889017
0.09239812 1.342028 0.11841948 -0.007899162 0.65862864 0.52762073 0.1301275 0.16999428
0.7544176 0.4635131 0.042599175 -0.09634633 0.17070086 -0.22786897 0.32804942 0.28529537
0.23485693 0.06526322 0.14462005 -0.3301148 -0.31118965 -0.36587325 -0.1308712 0.1418619
0.19762556 0.6532587 1.3766829 0.8230445 0.35225236 1.1232663 0.63653135 0.2569635
-1.4041513 -2.6799731 -2.6677964 -0.5567705 -2.5956216 -1.815648 0.020286856 0.34942976
0.9727803 0.14474697 0.3090056 1.5873652 0.4150938 -0.34087026 -0.21277574 -0.11762606
0.21965511 0.1544916 0.32682443 0.24796908 -0.03365343 -1.467012 -1.1393379 -1.7986437
-0.9432475 -1.9784877 -0.06983675 0.02562944 0.35062847 0.13884227 -0.011044927 0.2358868
-0.23633088 0.017815443 -0.21877429 0.6481994 1.461691 0.11835192 0.63261044 1.2134317
0.67240244 0.29445887 -1.7825401 -1.9019127 -2.009193 -1.5951557 -1.8785207 -1.7604204
0.09087861 0.20805427 -0.25853515 0.36546448 -0.23681983 -0.07915479 -0.07186022 0.16647376
-2.0433168 -1.8908117 -2.04408 -1.8429621 -2.0555408 -1.8689525 0.105605856 0.6236384
0.78117174 0.26503742 0.16581206 1.0365783 0.5074805 0.13734348 0.36356574 1.2300818
0.0838707 0.16029981 1.2625428 0.39479 -0.16721673 -0.010034752 -0.030063976 -0.20274234
-0.15655732 0.17839202 -0.11504931 -0.37614945 -0.23268771 -0.26344666 0.19136515 -0.19830346
00000000: f2d1 643f bc68 a53f 1950 193f 0f71 273f
00000010: 1377 803f 7bec aa3e afba 3c3e 757b 7ebe
00000020: 5e1f 933e 778f ae3e e102 283e be9a 5a3e
00000030: 6f45 0d3e 329c 68be 18aa 363d 309e 25be
00000040: 64e9 193e 6952 f23d 28ae bf3d e1c2 f13d
00000050: 0a64 98be 20a3 183f ec30 623f 5c11 713e
00000060: 54de ad3e b786 a63f aaae 193f b5f9 d73d
00000070: be94 283f 3dfd 903f 1f1a c03d 3cf8 9e3d
00000080: a2f9 a03f 3654 0d3f d1f1 193e bb38 84be
00000090: 3291 07be 2a32 d23d 8728 df3d d879 3dbe
000000a0: 28f5 3dbe 0915 333e 9d7e d1bf 88d6 cdbf
000000b0: 9674 e0bf 24d3 cebf 9b71 e0bf ccf2 d4bf
000000c0: 4494 a6bc 1fa8 afbf 09d7 07c0 5bbb 04c0
000000d0: d510 07c0 ceee 0fc0 c303 efbf b9f0 73be
000000e0: 316c febf 1764 08c0 8418 fdbf 655a e9bf
000000f0: 01f0 03c0 9a6c dcbf bcf7 113c 28c8 debf
00000100: dbca e6bf 377d 04c0 3407 f5bf ad54 02c0
00000110: 1884 e8bf ef98 933c 95a9 a8bf 4fe9 09c0
00000120: 6483 14c0 1c5a eebf ac41 04c0 542a 86bf
00000130: 5b75 bb3d f41b 8f3f 31d6 8b3f fcd3 0f3e
00000140: 9a52 4e3f 2d0f bd3f c882 3b3f 1dae 2e3e
00000150: a5af bebf 546b 03c0 fd1b 0ec0 1223 c2bf
00000160: 7fb5 03c0 dc77 dcbf ef46 b4bc 5d3d 3c3f
00000170: 7ed2 673f cca0 e53d 5089 883e a463 803f
00000180: be09 913e 6c9c ebbd 4a87 283f 3431 813f
00000190: 58e7 b13d 705c e23e a7c3 c33f fe67 963e
000001a0: bb61 fa3a 71cd b7be 3820 0a3e d1d7 a53e
000001b0: f56b 553e a9cc bdbe 4277 ba3e 0a90 b1be
000001c0: 9624 fabf 9bbe fcbf 2272 10c0 2f0a 08c0
000001d0: 0979 0ac0 e915 e5bf ad4a 2bbe 9c21 313f
000001e0: a742 b53f 2bb2 3a3e ac92 0b3f bbf5 da3f
000001f0: 495a 283f ccdb 1fbe e98b f9bf 52cb f4bf
00000200: 31cc 01c0 3390 e4bf 2774 05c0 fe42 e0bf
00000210: 25bc 3fbd bfc9 733e 456d 503f d236 713d
00000220: 3a3b bd3d 93c7 ab3f ea85 f23d 7d6b 01bc
00000230: e39b 283f 2712 073f 2540 053e fb12 2e3e
00000240: 8321 413f 9751 ed3e 797c 2e3d 3a51 c5bd
00000250: 35cc 2e3e 7c56 69be 18f6 a73e 3c12 923e
00000260: 567e 703e b9a8 853d 4717 143e cf04 a9be
00000270: 4054 9fbe bd53 bbbe 1a03 06be 3f44 113e
00000280: 5b5e 4a3e f63b 273f 2537 b03f 0bb3 523f
00000290: 6c5a b43e 31c7 8f3f b8f3 223f b890 833e
000002a0: 3bbb b3bf ae84 2bc0 2dbd 2ac0 8388 0ebf
000002b0: aa1e 26c0 2767 e8bf 9f30 a63c 75e8 b23e
000002c0: 2108 793f 8d38 143e fb35 9e3e c82e cb3f
000002d0: 2d87 d43e 8c86 aebe e2e1 59be efe5 f0bd
000002e0: 45ed 603e 0c33 1e3e 8855 a73e 9beb 7d3e
000002f0: 2ed8 09bd 0dc7 bbbf d3d5 91bf f539 e6bf
00000300: ab78 71bf 163f fdbf 9206 8fbd d5f4 d13c
00000310: 9385 b33e ab2c 0e3e c8f5 34bc 4f8c 713e
00000320: b900 72be b1f1 913c 5e06 60be 65f0 253f
00000330: b118 bb3f 7e62 f23d c2f2 213f bb51 9b3f
00000340: 9122 2c3f 50c3 963e 462a e4bf e071 f3bf
00000350: 9e96 00c0 102e ccbf 5e73 f0bf 7555 e1bf
00000360: 911e ba3d 2e0c 553e b85e 84be 291e bb3e
00000370: e680 72be e81b a2bd 732b 93bd 1978 2a3e
00000380: b4c5 02c0 1e06 f2bf 35d2 02c0 2fe6 ebbf
00000390: fb8d 03c0 d639 efbf e247 d83d c4a6 1f3f
000003a0: dffa 473f fcb2 873e a3ca 293e 99ae 843f
000003b0: 3eea 013f c5a3 0c3e 4a25 ba3e 5273 9d3f
000003c0: 67c4 ab3d a225 243e 019b a13f ea21 ca3e
000003d0: dd3a 2bbe cd68 24bc ba48 f6bc b09b 4fbe
000003e0: 9050 20be 66ac 363e f99e ebbd a996 c0be
000003f0: b045 6ebe 7be2 86be 3af5 433e 1010 4bbe

base_model_projection.0.bias f4 [64]
-0.005582216 -0.12966193 -0.3520243 -0.011635593 -0.0037230998 -0.20399505 0.010447095 0.019729735
0.015261799 0.014024452 0.014065778 -0.003812674 0.018253349 -0.0013970338 -0.0028663971 -0.33462912
0.014121521 -0.0076918895 0.017440518 -0.003774342 -0.000539319 -0.22733425 -0.041209705 -0.009022596
0.019947661 -0.0046790144 -0.18120699 0.020879881 -0.19896255 -0.006723036 0.014293604 -0.11016257
0.034640852 -0.010449594 -0.0065729604 -0.30783543 -0.11131342 -0.2824209 -0.0052193953 -0.12361327
-0.041422144 -0.002986264 -0.14564347 -0.009290961 -0.27156293 0.015836922 -0.0040224404 0.003757114
0.01608501 -0.32902446 -0.13786678 -0.33039674 0.0097025875 -0.06539172 0.016909206 0.0030247017
0.013866386 -0.3044152 -0.24654199 -0.11639691 -0.0056694373 -0.23644258 0.013412403 -0.019636352
00000000: 06eb b6bb 19c6 04be 873c b4be 37a3 3ebc
00000010: 40ff 73bb 14e4 50be 4b2a 2b3c 41a0 a13c
00000020: a00c 7a3c d1c6 653c 2674 663c 0ede 79bb
00000030: 0c88 953c ad1c b7ba 2ada 3bbb 8254 abbe
00000040: f45d 673c 3f0c fcbb 6bdf 8e3c f35a 77bb
00000050: 1661 0dba 4fca 68be 82cb 28bd 83d3 13bc
00000060: 4769 a33c 6b52 99bb 538e 39be 490c ab3c
00000070: d7bc 4bbe ea4c dcbb b82f 6a3c ea9c e1bd
00000080: 91e3 0d3d c634 2bbc fd61 d7bb 9b9c 9dbe
00000090: 4af8 e3bd 7999 90be 7607 abbb f428 fdbd
000000a0: 44aa 29bd 32b5 43bb 9023 15be 1d39 18bc
000000b0: 4c0a 8bbe 6fbc 813c adce 83bb ea39 763b
000000c0: b6c4 833c e575 a8be f32c 0dbe c329 a9be
000000d0: 9af7 1e3c 18ec 85bd 2d85 8a3c 133a 463b
000000e0: d72f 633c 4fdc 9bbe 8175 7cbe 8161 eebd
000000f0: b0c6 b9bb 011e 72be b2bf 5b3c 6adc a0bc

base_model_projection.3.weight f4 [32, 64]
0.055879887 0.017582461 0.053317323 0.027243864 0.06675997 0.055531144 -1.1776447 -0.8460463
-0.89083266 -0.9446689 -0.86096674 0.05693092 -1.0287074 0.16691144 0.12693113 -0.037415996
-0.74609244 0.07275076 -0.705659 0.14383598 0.23189868 -0.00762403 -0.008179706 0.048284847
-0.538701 0.04701877 -0.10281597 -0.45852885 0.011823326 0.0808951 -1.0202461 -0.11511697
-1.1100063 0.053363036 0.15660116 0.0690016 -0.09366894 0.0077298284 0.10760513 0.115521416
0.031199973 0.14830965 0.099831566 0.08143425 -0.08948763 -1.1215018 0.12943873 0.037479814
-1.2212911 0.01926811 -0.08641784 -0.07504396 -1.3945966 -0.06334452 -1.1194911 0.11352304
-1.1978893 0.0848524 0.021963626 0.014650017 0.022240758 -0.060445383 -1.5477552 0.050648957
-0.7451324 0.116499975 -0.088193014 -0.69981176 -0.05401233 -0.10457274 0.11528668 0.08685204
0.037759136 -0.0057059675 -0.025656661 -0.37536234 -0.066177875 -0.9635228 -0.16562702 0.09841241
-0.060264606 -0.12098335 0.06856838 -0.055188946 -0.82678974 0.03844343 -0.008545213 -0.53068626
0.028717069 -0.07778884 -0.042884037 0.04098557 0.021801755 -0.35159343 0.0879522 0.04678592
-0.013275705 -0.93728936 -0.08986925 -0.11121683 -0.07591589 -0.12171383 -0.06668953 -0.054084405
0.06637238 -0.9083425 0.008936122 -0.15738657 0.03176573 -0.0014942872 -0.35636896 -0.16128822
0.071073405 0.050137654 -0.099052295 -0.074775696 -0.012434866 0.06307466 -0.02667887 -0.06994721
0.059147555 -0.035892814 -0.078970015 -0.0004249364 -1.0431377 0.054463908 0.032194674 -0.057444688
0.086911574 -0.017315164 0.0937814 0.014783942 0.06896325 -0.026335135 -1.4024539 -0.8773122
-0.95421 -1.2117765 -0.8304543 0.02692452 -0.9914986 0.18728693 0.11378475 -0.07832706
-0.82124925 -0.0007994762 -0.7704263 0.10593048 0.19199 0.11273605 0.04362524 0.073229924
-0.618439 0.10674469 0.11914097 -0.37771603 0.014661744 0.04505405 -1.2918195 0.018716514
-1.2148579 0.12734875 0.106109336 0.10665339 0.12246072 0.013964519 0.08528033 -0.08270471
0.03533409 0.09320709 -0.046833873 0.07442363 -0.0619196 -1.1952195 0.1069604 0.108833805
-1.285119 -0.023594126 0.105854854 -0.0062990934 -1.3615203 0.10952638 -1.2402023 0.20801899
-1.3704826 0.04935801 0.097745776 -0.022078872 0.090436935 0.06418206 -1.4007347 0.012178275
-0.7805232 0.026787698 -0.1206411 -0.4720245 -0.05100056 -0.036997333 -0.07596065 0.12919566
0.048000116 0.04812749 0.15093909 -0.4737473 0.06793667 -0.718768 -0.19714184 -0.024502665
-0.003511117 -0.20555483 0.006900441 -0.04178346 -0.82157403 0.05515635 0.06004317 -0.59477913
-0.015478957 -0.19221509 -0.0673548 0.052280445 0.10619782 -0.39488158 -0.011129689 -0.04754503
-0.039198026 -0.6600086 -0.13633743 -0.07230067 0.06746329 0.08704394 -0.15505604 0.058323488
0.09160465 -0.9065432 -0.020047694 -0.15128039 -0.024854451 -0.0038822587 -0.3159762 -0.058429226
0.016723266 0.11088371 -0.09521887 0.09814128 0.1193698 0.0936054 0.06096552 -0.034283303
-0.01164168 -0.027317405 0.002589047 -0.024001703 -0.91246665 0.0405588 0.00022279192 0.004480241
00000000: 4fe2 643d 1809 903c 4463 5a3d 862e df3c
00000010: 73b9 883d a074 633d 10bd 96bf 7e96 58bf
00000020: 9c0d 64bf d2d5 71bf 5168 5cbf 6530 693d
00000030: afac 83bf d5ea 2a3e 3cfa 013e 8441 19bd
00000040: eaff 3ebf 5afe 943d 11a6 34bf bd49 133e
00000050: d976 6d3e 00d3 f9bb 2c04 06bc 55c6 453d
00000060: 4fe8 09bf c196 403d 2e91 d2bd 4bc4 eabe
00000070: a0b6 413c 55ac a53d 6d97 82bf 72c2 ebbd
00000080: b014 8ebf 3393 5a3d 0e5c 203e b650 8d3d
00000090: 80d5 bfbd 804a fd3b 1460 dc3d 7e96 ec3d
000000a0: 1697 ff3c 7cde 173e 7e74 cc3d 00c7 a63d
000000b0: 4a45 b7bd 5f8d 8fbf 968b 043e 6f84 193d
000000c0: 4453 9cbf 28d8 9d3c d6fb b0bd a6b0 99bd
000000d0: 2482 b2bf c6ba 81bd 7c4b 8fbf c57e e83d
000000e0: 7054 99bf 18c7 ad3d 10ed b33c a006 703c
000000f0: 4032 b63c 9495 77bd d81c c6bf 4875 4f3d
00000100: ffc0 3ebf 8a97 ee3d 8a9e b4bd dd26 33bf
00000110: 083c 5dbd 3c2a d6bd 6c1b ec3d 7bdf b13d
00000120: 53a9 1a3d 20f9 babb eb2d d2bc 7e2f c0be
00000130: 4488 87bd 6ea9 76bf 219a 29be 728c c93d
00000140: 05d8 76bd 1ec6 f7bd 946d 8c3d ce0d 62bd
00000150: 7ea8 53bf dc76 1d3d 3901 0cbc 0edb 07bf
00000160: 0f40 eb3c c14f 9fbd 2ca7 2fbd 7ce0 273d
00000170: 9899 b23c 0e04 b4be 4820 b43d 98a2 3f3d
00000180: 5882 59bc 32f2 6fbf 5f0d b8bd a6c5 e3bd
00000190: ca79 9bbd 1a45 f9bd 8594 88bd 9c87 5dbd
000001a0: 3eee 873d 2289 68bf d068 123c f229 21be
000001b0: c81c 023d f5db c3ba fe75 b6be bd28 25be
000001c0: ef8e 913d 245d 4d3d eedb cabd 0024 99bd
000001d0: 9cbb 4bbc 4a2d 813d a58d dabc 7c40 8fbd
000001e0: b544 723d 5804 13bd 08bb a1bd 00ca deb9
000001f0: 8985 85bf 8c15 5f3d 90de 033d 1f4b 6bbd
00000200: b2fe b13d 88d8 8dbc 7610 c03d 5938 723c
00000210: 9b3c 8d3d c8bc d7bc 9c83 b3bf 8897 60bf
00000220: 1b47 74bf 7e1b 9bbf a798 54bf d090 dc3c
00000230: dad2 7dbf 25c8 3f3e fb07 e93d f069 a0bd
00000240: 643d 52bf f193 51ba a83a 45bf 14f2 d83d
00000250: 0799 443e 28e2 e63d 61b0 323d 92f9 953d
00000260: 0552 1ebf f69c da3d 2e00 f43d ff63 c1be
00000270: d037 703c 988a 383d 575a a5bf 6053 993c
00000280: 7780 9bbf b667 023e da4f d93d 186d da3d
00000290: b0cc fa3d 70cb 643c 74a7 ae3d 1661 a9bd
000002a0: 7bba 103d 5ce3 be3d e0d4 3fbd 6b6b 983d
000002b0: 689f 7dbd f4fc 98bf 0e0e db3d 42e4 de3d
000002c0: c87e a4bf 7848 c1bc 6eca d83d a068 cebb
000002d0: 4c46 aebf 5e4f e03d f3be 9ebf ee02 553e
000002e0: f96b afbf a02b 4a3d f02e c83d c0de b4bc
000002f0: 0037 b93d e271 833d 464b b3bf 6387 473c
00000300: 5ed0 47bf e071 db3c ae12 f7bd 32ad f1be
00000310: f7e5 50bd 848a 17bd 4291 9bbd de4b 043e
00000320: c59b 443d 5521 453d c78f 1a3e 028f f2be
00000330: 6122 8b3d 2e01 38bf 8ddf 49be d0b9 c8bc
00000340: c51a 66bb f77c 52be 181d e23b 2225 2bbd
00000350: ad52 52bf a0eb 613d d4ef 753d 7243 18bf
00000360: 749b 7dbc 08d4 44be 50f1 89bd 0524 563d
00000370: 3e7e d93d eb2d cabe 4d59 36bc 94be 42bd
00000380: 1c8e 20bd 53f6 28bf 0a9c 0bbe 6012 94bd
00000390: 322a 8a3d 1844 b23d 03c7 1ebe 9ce4 6e3d
000003a0: 389b bb3d 3713 68bf 103b a4bc 3fe9 1abe
000003b0: 909b cbbc 7e6d 7ebb a2c7 a1be 7c53 6fbd
000003c0: 3bff 883c 0017 e33d 1c02 c3bd 4cfe c83d
000003d0: 2778 f43d 30b4 bf3d fbb6 793d a66c 0cbd
000003e0: bfbc 3ebc c0c8 dfbc 00ad 293b 389f c4bc
000003f0: 6a97 69bf fc20 263d 409d 6939 fcce 923b

base_model_projection.3.bias f4 [32]
0.1250124 0.034027167 0.12012485 0.031515416 0.1134727 0.119172916 0.058722954 0.030452127
0.062290087 0.12572739 0.13082139 0.03060434 0.11347625 0.11051107 0.1280895 0.047587644
0.12565503 0.03525252 0.116472684 0.042930964 0.04662457 0.13133411 0.04332794 0.050808936
0.15931883 -0.0798661 0.05370598 0.043147165 0.13609791 0.05364352 0.04391609 0.03947529
00000000: 4003 003e 1260 0b3d 0404 f63d 4f16 013d
00000010: 6064 e83d ee10 f43d 7b87 703d bd76 f93c
00000020: e423 7f3d aebe 003e 0bf6 053e f4b5 fa3c
00000030: 3c66 e83d a153 e23d e529 033e 43eb 423d
00000040: b6ab 003e f264 103d 3b89 ee3d 61d8 2f3d
00000050: 68f9 3e3d 737c 063e a378 313d 081d 503d
00000060: 7a24 233e d690 a3bd cdfa 5b3d 15bb 303d
00000070: 405d 0b3e 4fb9 5b3d 5ce1 333d d7b0 213d

base_model_projection.6.weight f4 [1, 32]
0.88304394 -0.48489308 0.85635805 -0.4774763 0.973606 1.0177131 0.47803247 -0.5167844
-0.40460423 0.84420276 0.85700774 -0.4532924 0.99628764 0.8724435 0.8586812 -0.36705393
0.8145081 -0.52693754 1.0667118 -0.39764306 -0.4757058 0.74071795 -0.43457264 -0.35223404
0.75709563 -0.009202984 -0.54279107 -0.404928 0.81964415 -0.46154422 -0.49878922 -0.4659323
00000000: 2b0f 623f e843 f8be 483a 5b3f c677 f4be
00000010: 3e3e 793f 6c44 823f acc0 f43e fc4b 04bf
00000020: 4928 cfbe ac1d 583f dc64 5b3f f115 e8be
00000030: b50c 7f3f 7558 5f3f 88d2 5b3f 7eee bbbe
00000040: 9a83 503f 61e5 06bf 038a 883f df97 cbbe
00000050: b68f f3be b19f 3d3f 4e80 debe 0558 b4be
00000060: 05d1 413f 1dc8 16bc 5bf4 0abf b952 cfbe
00000070: 33d4 513f 864f ecbe 4d61 ffbe ae8e eebe
