bpr/ckpt/Toys_and_Games/stack_0.2409.pth (torch, 13572 bytes, 5 tensors)

base_model_projection.0.weight f4 [64, 7]
00000000: 46f8 0ebe a1f7 92be 54d5 dcbe 7a7b afbe
00000010: 3643 14bf b7b8 663c 79bb 63be 773b 193e
00000020: 8dfe 003f 4f58 5dbd 9907 dc3e 1edb d6bd
00000030: d5c4 173f 5f78 0b3f 572e 7dbe 6a96 90be
00000040: d062 003d 9c4a 2ebe e2f2 703e 0174 953e
00000050: ba1f 69be b276 b03e 5a98 553e 04c8 ea3e
00000060: 57a8 133f a0e6 c63e f7b6 1c3f bd64 2e3e
00000070: be3f abbe e620 8dbe 90fa a1bc b03c d8bc
00000080: 6c99 78be 72f3 343e a45b cc3d 8aab a63e
00000090: a8c8 5d3d e8d6 31be 0922 8e3e a88c 20be
000000a0: 676b 4b3e 67b8 84be e466 753e b7f1 593c
000000b0: a994 a93e e6b0 f13d b8ed 013f 7bd5 b73e
000000c0: 2117 0a3f e0c2 273d c010 90bd 40ad 0ebd
000000d0: a043 44bd 4bd2 a93e f123 9b3e 97d5 7bbe
000000e0: 3ab7 673e 7a95 153e a061 c5bd 2462 4fbe
000000f0: 16fc 1c3e 6f74 af3e 0b8c 953e 320e 133f
00000100: 9984 923e 84b9 b13c a422 0e3f 3194 063f
00000110: ac50 163f 647a 8dbb 3e4c bebe f299 7f3e
00000120: 774a 863e 10bc 30bd c1cc 863e f300 a73e
00000130: d8fc bfbd 1951 d83d 8ca1 763e d77d ad3e
00000140: 90e2 f73e 4774 273e d800 123f c9ec 4d3e
00000150: 3db1 be3e dedb 5a3e fc48 f13d d554 87be
00000160: 8a56 aabe faf9 193e 7817 19bd 6dd9 bf3e
00000170: 5dc8 2f3e 7f84 923e 28de 293f 96ce 263f
00000180: 5480 0cbd f02e b03e 0912 953e 53ea 923e
00000190: 482e 83bd c027 bfbe 89e9 62be f4fa 913d
000001a0: 404f 73bc 3b3b a1be b8c3 03bd f417 53be
000001b0: d007 05bd ec8e a4bd a4ab f43d 7313 8fbe
000001c0: 9552 803e 010b 0a3f aea8 ac3e e537 193f
000001d0: 3b5b 763e 1533 503e 05a7 f43e 9de8 5cbe
000001e0: b027 f1bc 97eb 48be 40bb a3bb dd22 b73e
000001f0: 1062 15bd fe12 b2be 4169 0b3f 29d1 fa3c
00000200: c041 163f c50a 6e3e 678f b63e f931 1e3e
00000210: 32ef e93e a69a 01bf f9a6 fd3d 148c 0dbf
00000220: 5ffc 96be b048 f8be e2af 3abe 7366 e4be
00000230: b959 46be 503f a4be f0f3 d5be b9c8 41be
00000240: 0934 00bf 9f45 e9be e39d f7bd 796c 3e3e
00000250: b9c1 143f 75f4 263f 20a6 a73d 6992 233f
00000260: 0778 ce3e 7b37 093f dd00 ae3e 608f 133e
00000270: 7677 113d 7baf 133f b79f 1c3f c3a3 243f
00000280: 8930 283e 8277 bb3d b6f2 90be dee2 b2bd
00000290: 6f5a 5abe 791b e0bd 08b6 c2be d68a dfbe
000002a0: 4272 423d 9f9f ca3e 78f9 003f a824 1b3f
000002b0: db8f 753e af9a 7b3e 8cdc 1b3f 3ca0 ecbe
000002c0: 411b 0fbe cd70 2d3d 04a4 e1be d3a9 dbbe
000002d0: 0c2a 44be 6d38 2cbe 4826 a23e 9cb0 093f
000002e0: ed7c b03e 0cbe 003f fb56 f13e 69a6 40bd
000002f0: 3f42 133f 078f ad3e acb2 833d 4f76 8a3e
00000300: c10c 99be 1eb2 1b3e 8c8c bdbd edf3 a73e
00000310: 4566 df3c a710 053f 3329 b53d dd03 673e
00000320: 32ae 013f a539 2b3f 726f 6e3e 8ae8 ed3e
00000330: 8d10 213f dae5 553e df32 5c3e de83 b33e
00000340: 8b41 2d3f 627a 52bc ba93 4cbd fac7 12bf
00000350: aa8f 0dbf 47ca 89be 7add febe 55d5 06bf
00000360: 7715 07bf 4267 1e3e be36 6d3e c02e 72bd
00000370: 97e1 9a3e b85b a13d 5f22 853e 00ba 223a
00000380: 1fba d6be 7023 e7be 1e6a 01bf 3c05 fcbe
00000390: a799 4f3d 65a9 98be b4b6 01bf 7ac5 74be
000003a0: ad96 2cbc 25ee 19bf f1b4 dcbe 98a8 0dbf
000003b0: bc44 e9be 0809 163d 3e10 cd3e 2594 d33e
000003c0: 3086 a23e 23e0 c63d 20f7 033e c366 d13e
000003d0: 2f7c 1f3f f044 b2be 452f f0bd ce15 eabe
000003e0: 99a0 1bbf ffdf 16bf c1eb 7dbe 2580 a6be
000003f0: 2833 67be 1019 92be ce61 523e e0e4 5a3c
-0.13961896 -0.2870455 -0.43131506 -0.34273893 -0.57915056 0.014082125 -0.22239484 0.1496409
0.50388414 -0.054039296 0.42974547 -0.10491012 0.59284717 0.54480547 -0.24724708 -0.28239757
0.031344235 -0.17020649 0.23530152 0.29190066 -0.22766009 0.34465557 0.20858899 0.45855725
0.5767874 0.38847828 0.6121668 0.17030616 -0.3344707 -0.27564162 -0.019772798 -0.026396126
-0.24277276 0.17670992 0.099784166 0.3255275 0.05414644 -0.17367136 0.27760342 -0.15678656
0.1986519 -0.25921938 0.23965031 0.013302258 0.3312123 0.11801319 0.50753355 0.3590506
0.5394154 0.04095733 -0.07034445 -0.034833193 -0.047916055 0.33168253 0.3030086 -0.24593197
0.22628489 0.14607802 -0.09637761 -0.20252281 0.15330538 0.3426852 0.29208407 0.57443535
0.2861679 0.021694906 0.5552161 0.5256987 0.58716846 -0.0043175686 -0.37167543 0.24961069
0.26228687 -0.0431481 0.2632809 0.32617912 -0.09374398 0.10562343 0.24085063 0.3388507
0.4841504 0.1635295 0.5703254 0.20109858 0.37244597 0.21372935 0.11781499 -0.2643191
-0.3326915 0.15036765 -0.037375897 0.3747057 0.17166276 0.28616711 0.6635461 0.65158975
-0.03430207 0.3441081 0.29115322 0.286944 -0.06405312 -0.37335014 -0.22159399 0.07127944
-0.014850438 -0.31490502 -0.032169074 -0.20614606 -0.032478154 -0.08035073 0.119468 -0.27944526
0.25063005 0.5392304 0.33722442 0.59850913 0.24058239 0.20331986 0.47783676 -0.2157311
-0.02943787 -0.1962112 -0.004996687 0.35768786 -0.036470473 -0.34780115 0.5445748 0.030617313
0.58694077 0.23246296 0.35656282 0.1544875 0.45690304 -0.506266 0.12385363 -0.5529187
-0.2948942 -0.48492956 -0.18231156 -0.44609413 -0.19370164 -0.32079554 -0.41787672 -0.18924226
-0.500794 -0.4556093 -0.120906614 0.18596067 0.581081 0.6521676 0.08185983 0.6389528
0.4032595 0.5360028 0.33985034 0.14410162 0.035514317 0.57689637 0.61181206 0.6431238
0.16424765 0.09153654 -0.28310174 -0.08734678 -0.2132356 -0.1094274 -0.38029504 -0.4366061
0.047472246 0.39574906 0.5038066 0.6060281 0.23980658 0.24570726 0.608834 -0.46216
-0.1397524 0.042343903 -0.44070446 -0.42903003 -0.19156665 -0.168184 0.3166983 0.5378511
0.3447031 0.5028999 0.47136673 -0.0470337 0.5752296 0.33898184 0.06430563 0.27043387
-0.29892543 0.15204665 -0.09255323 0.32803288 0.027270446 0.51978534 0.08845749 0.22560067
0.50656426 0.66884834 0.232847 0.46466476 0.6291588 0.20888463 0.21503781 0.35061544
0.67678136 -0.012846561 -0.04994557 -0.5733639 -0.5529734 -0.26912138 -0.49778348 -0.5266927
-0.5276713 0.15469077 0.23165414 -0.059126616 0.30250236 0.07878822 0.26002786 0.0006207526
-0.41938874 -0.45144224 -0.50552547 -0.49222744 0.050683644 -0.29816738 -0.5066941 -0.23903456
-0.010533971 -0.60129005 -0.43106797 -0.5533538 -0.45560253 0.036629707 0.40051454 0.41323963
0.31743002 0.097107194 0.1288724 0.40898713 0.62298864 -0.3481822 -0.11727766 -0.4571976
-0.6079193 -0.5893554 -0.24796964 -0.32519642 -0.22578108 -0.28534746 0.20545122 0.013360232

base_model_projection.0.bias f4 [64]
00000000: e31a 2b3d 33b6 2a3e 6d31 14be f796 aeb9
00000010: 127d 5abe b908 9cbd 8257 453e 28be bdbe
00000020: 3037 c0be 8f00 a0b7 e5ca 99be ad8b d9b8
00000030: 876b 92be 78ee 9739 9260 46be 44e6 8bbe
00000040: e988 ae39 603a aebe 429f 9d3d d27b 843d
00000050: ba85 473d 7b7a d53a d850 513a 65c5 2f3e
00000060: c352 453d 629d e93d ec4e 523b 28cb 84be
00000070: 832c 533c fa1f 4f39 b9d5 7f3d e2be a4be
00000080: 66e5 2c3d 93ba 473d a269 2638 26db 973d
00000090: 485c 37be d7fd 7bbe 398c a539 4401 5ebe
000000a0: 5832 a1bd f0a6 cfbd ec3e 8abe 2561 003e
000000b0: 185c 8a3b 8eaa acbe 9021 5abd 6fdb cc3d
000000c0: 584d ed3b b134 013b 2491 7c3e 40ab 663b
000000d0: e822 563b 2017 2b3d 094f b5be 5e46 95be
000000e0: bf66 0d3e 291d 16be 38d3 99be 156e 963d
000000f0: 35c3 42be 85a0 6cbe 73a6 7cbe 5344 c1be
0.041773688 0.16671066 -0.1447198 -0.00033300344 -0.21336773 -0.07618851 0.19271663 -0.3705914
-0.37542105 -1.9073746e-05 -0.3003761 -0.00010373383 -0.28597662 0.00028978637 -0.19372776 -0.27324116
0.00033289872 -0.34028912 0.07696392 0.06468929 0.048711516 0.0016287112 0.0007984764 0.17165144
0.04817463 0.114069715 0.0032090498 -0.25936246 0.01288903 0.0001975297 0.06245968 -0.32176882
0.04221096 0.048761915 3.9675862e-05 0.07414846 -0.17906296 -0.24608551 0.00031575726 -0.2168017
-0.078709304 -0.10139263 -0.2700113 0.12537058 0.004222404 -0.33723873 -0.053254664 0.10002791
0.007241886 0.0019715244 0.24664742 0.0035197288 0.0032674614 0.0417701 -0.35411862 -0.29155248
0.13808726 -0.14659561 -0.3004396 0.07345215 -0.19019778 -0.23108108 -0.2467287 -0.3774744

base_model_projection.3.weight f4 [32, 64]
00000000: 9718 ba3d 9147 893c 900d 53bd fe80 8ebe
00000010: c41f d5bd 6038 7abc 9737 19bc 0079 143b
00000020: 0804 723d 2edf 39be 3ead 8f3d 09e6 33be
00000030: 2038 113c 8f34 87be 001b 123a 388f 103d
00000040: 9b70 9fbe c084 01bc e895 f03d 8f5c 793d
00000050: 7345 0f3e e9a5 bdbe dea1 59be 5221 313e
00000060: e9c7 023e b633 903d 38fa 8cbe 8ed4 e8bd
00000070: d6c0 a9bd 9101 c3be 02af 4d3e aeb4 c73d
00000080: e827 d43d 3a79 cf3d 48f8 63be ee7c 543e
00000090: d0a7 383d 3057 a23c 7ce0 5bbe 886f 8bbd
000000a0: c018 02bb 5846 b03d 4612 84bd 3e87 953d
000000b0: e282 a1be 0871 2ebd a42d 8fbd e68e 513e
000000c0: 0963 5fbe 2b8a 82be e2ed 1d3c 3203 96be
000000d0: 2987 a4be c9ec 2f3e 8058 313d f47e 3fbd
000000e0: 4003 bebc 68e2 ab3d 0866 9a3d 0fce 3a3e
000000f0: 0039 c93d 307e 003d 0831 e2bc ce4b ccbd
00000100: fd95 22bc 1c7a ccbc a81f 903d f360 9b3e
00000110: 408d 71bb 00eb 2b3d c289 0abd 1a18 cc3d
00000120: d64c 8abd 02ab 6a3e c0f1 133c 173b 823e
00000130: c482 a23d 533b bf3e 3838 39bd 62de e6bd
00000140: 6568 a03e 52e9 93bd 41b4 f33d 7c17 7fbd
00000150: cfa1 23be 30b9 053e 4098 473e 20f2 4f3d
00000160: 69dc 9dbc a5b6 013d e2f4 8d3e c860 dcbd
00000170: 422f 173e bc1a a73e 3864 45be 2c21 a13d
00000180: 9d9f 97be 7253 c5bd 2d89 913e ee67 0bbe
00000190: e09d 993b c0e3 e83d 6c70 953e 944f 82bd
000001a0: a0a3 3c3c 0094 f03c 903e 3e3c e555 e2bc
000001b0: 19f8 b23e 80fb dbba c491 983d d835 90bd
000001c0: b00d 0b3e 07d6 5b3e 1598 ad3d 2c63 443e
000001d0: dcfd 853e d3df 86be d496 97bd 78e0 e6bc
000001e0: 6011 08bd 360f fabd 8886 b93d 20ae 88bd
000001f0: d4d1 fc3d 0899 343d 4079 8e3b 3ca7 4e3d
00000200: 4e12 7b3e d300 6f3d 00bf 6a3b 4da7 86be
00000210: 981f bfbd 9a36 8cbd e58f 103e c4d0 ba3d
00000220: 008f 7e3c efd9 92be 60b6 a53c 2e7c 01be
00000230: 4060 573c 84d6 60be 00ab 11ba b298 c93d
00000240: ea56 89bd b8ef afbd 5681 2b3a 7256 6b3e
00000250: 2760 383e 0db0 2abe a6b8 f8bd 4d6d 42ba
00000260: 6a42 263d 9b54 023e 290e aabe 201b 193c
00000270: 6c00 98bd 69d0 7bbe 3c81 4c3e a8cc e53c
00000280: dd7b e43d 2e9d 6a3d 6a4e 88bb cb1e f73d
00000290: 8024 39bb 9897 a13c 9562 30be 6698 8e3d
000002a0: 4e9c f2bd 5450 10bd b89b b03c 9d8f e83d
000002b0: 18a0 73be 90c6 40bc 8c0c bebd e736 8c3d
000002c0: bc73 06be 1508 0cbe 4149 5b3d db94 50be
000002d0: 5685 c9be 9e64 d93d a6f0 e83d 58d7 0a3d
000002e0: 7e29 053e ece3 febd 58db 89bd 27d5 3bbc
000002f0: 0813 7c3d c0c8 61bd f62e f3bd b0be d43d
00000300: 019f fbbd 95ef c03d c88d 00bd 9c1a ae3e
00000310: 140a 4d3d 40c3 b23c 79b1 7b3d dc39 673d
00000320: cca8 cb3d c65b a63e b6a9 ebbd f712 2c3e
00000330: d0a9 f33c 7865 6f3e 403c c6bd dc4f fe3d
00000340: 7619 123e f29f f6bd 4912 093e b12b c5bd
00000350: 6cb7 71be e2fd ce3e 04c9 a43e f6d2 193d
00000360: 942a a43d 8486 f8bc 5cd9 4a3e 707c c5bd
00000370: ef81 b93d a759 b53e 40d2 c33b 003a 9f3b
00000380: eb95 40be f98f dbbd 6767 923e b39c c2bd
00000390: e83d 0a3d 608c ce3d 43d3 4d3e 4637 953d
000003a0: 3e79 e93d a2d8 83bd c8df febc 61c0 0ebc
000003b0: 3ecf ac3e 6e98 a4bd 4459 a63d 75bc 49bd
000003c0: c548 973e d7f4 9e3e 3a32 b23c 520a 763e
000003d0: b4d0 af3e a60a cfbd b8a4 ce3c f8f2 30bd
000003e0: baa0 823b f481 2e3d 2022 c63c c0dc 95bc
000003f0: 284e a6bd e2b1 e2bd 52f1 863d 20a1 903b
0.090867214 0.016757758 -0.051526606 -0.27832788 -0.104064494 -0.01527223 -0.009351633 0.002265513
0.059085876 -0.18151543 0.07015465 -0.1756822 0.008863479 -0.26407287 0.00055734813 0.035292834
-0.311406 -0.007905185 0.11747342 0.060879286 0.13991337 -0.37040642 -0.21253154 0.17297867
0.12771572 0.07041113 -0.27534652 -0.113686666 -0.08288734 -0.38087133 0.20086291 0.09751259
0.10359174 0.10130544 -0.2226268 0.20750782 0.045081913 0.019816965 -0.21472353 -0.06808382
-0.0019851178 0.08607167 -0.06448798 0.07301186 -0.31545168 -0.042588264 -0.06991127 0.20464668
-0.21815123 -0.2549604 0.009639235 -0.29299313 -0.3213437 0.1718017 0.04329729 -0.04675193
-0.02319491 0.08392793 0.07538992 0.18242668 0.09825325 0.03137034 -0.02761127 -0.09975396
-0.009923455 -0.02496057 0.07037288 0.30347404 -0.0036857873 0.04197216 -0.033822782 0.099655345
-0.067529365 0.22916797 0.009029806 0.25435707 0.07935098 0.37349948 -0.04521963 -0.11272885
0.31329647 -0.07222237 0.11899615 -0.062278256 -0.15979694 0.13058925 0.19491673 0.050768018
-0.019270139 0.031668324 0.27725893 -0.10760647 0.14764121 0.32637584 -0.19276512 0.07867655
-0.29613963 -0.096350566 0.2842497 -0.13613865 0.0046880096 0.11371565 0.29187334 -0.063628346
0.011513621 0.029367447 0.011611596 -0.027628848 0.34954908 -0.0016783327 0.074496776 -0.0704152
0.1357944 0.21468364 0.08476273 0.19178456 0.26170242 -0.2634264 -0.07401815 -0.028183207
-0.033219695 -0.122099325 0.09058863 -0.06673837 0.12344709 0.044091254 0.00434795 0.050452456
0.24518701 0.058350395 0.0035819411 -0.26299515 -0.09332198 -0.06846352 0.14117391 0.0912185
0.015537024 -0.28681895 0.020228565 -0.12645027 0.013145506 -0.21956831 -0.0005556792 0.098435774
-0.06706031 -0.085906446 0.0006542405 0.22982195 0.18005429 -0.1666872 -0.12144594 -0.00074168
0.04059068 0.12727587 -0.33213928 0.009344846 -0.074219555 -0.24591221 0.19971174 0.02805169
0.111564375 0.057278804 -0.0041597383 0.1206642 -0.0028250515 0.019725606 -0.17225106 0.069626614
-0.11846219 -0.035232857 0.021558627 0.11355517 -0.2379154 -0.011766091 -0.09279737 0.06846409
-0.13130087 -0.13674958 0.053536657 -0.20369284 -0.3935954 0.10614894 0.11374025 0.033896774
0.1300411 -0.124458164 -0.067312896 -0.011464394 0.061541587 -0.05512309 -0.118741915 0.10387933
-0.12286187 0.09420697 -0.031385213 0.34004676 0.05005844 0.021821618 0.061448548 0.056451663
0.09944305 0.32491893 -0.11506979 0.1680411 0.029744059 0.23378551 -0.096794605 0.12417576
0.14267525 -0.12042226 0.13385881 -0.09627474 -0.23605126 0.40428072 0.32184613 0.037554704
0.08015934 -0.03033758 0.19809479 -0.09642875 0.09057986 0.35419962 0.0059759915 0.004859209
-0.18807189 -0.1072082 0.28594515 -0.09502544 0.033750445 0.10085368 0.20100121 0.07285933
0.11400078 -0.06437804 -0.031112567 -0.008712859 0.33751863 -0.08036886 0.08122495 -0.049251992
0.29547706 0.31046173 0.021752466 0.24027374 0.34338915 -0.10109453 0.025225028 -0.043200463
0.0039864453 0.0426044 0.024186194 -0.018293738 -0.08120376 -0.11069085 0.06588997 0.004413739

base_model_projection.3.bias f4 [32]
00000000: a74d 113e 99bd 983d 4d2d 1f3d a3f1 9b3c
00000010: c6c3 953d 3b43 4f3d 6bba 8b3d 1ea2 da3d
00000020: 3bd9 2b3d eeb6 a73d 9de4 c838 2c24 d23d
00000030: 92f2 30bc b163 5e3d 54f2 ec3d 8df6 513d
00000040: e53a 543d 2e86 083e 94b3 923c f9be 273e
00000050: 7b3a b13d 8404 2b3d 53bb 473d 4060 b3bd
00000060: 9dc2 c23d 086c 6f3c ec71 d43d c0f6 c63d
00000070: ece4 033d 16d7 273e 04f3 6e3d f913 95b9
0.14189778 0.07458038 0.03886156 0.01903612 0.073127314 0.050601225 0.06822666 0.10675453
0.041955214 0.08189188 9.579326e-05 0.102608055 -0.010800021 0.054294292 0.11569658 0.05126052
0.05181398 0.13332435 0.017907895 0.16381444 0.086537324 0.041752353 0.04876263 -0.087585926
0.09509776 0.014613159 0.103732914 0.097150326 0.03220074 0.16390643 0.058337227 -0.00028434375

base_model_projection.6.weight f4 [1, 32]
00000000: 769a 65be 82d0 9f3e 2d6f 87be 3a4b a13e
00000010: 8747 9cbe b54b 9a3e 2f5e cb3e d67f 6cbe
00000020: 8a0e c53e 8201 5ebe 57d0 c83e aaa6 a0be
00000030: bc2c db3e 3472 82be f0a7 8e3e d5eb df3e
00000040: a296 a63e 3175 a2be 9c5a 963e ca5e 70be
00000050: 935d cc3e 96c3 aabe 2e0b 9d3e d6fb 1abe
00000060: 547c bb3e fbac c73e 4e20 963e 66b7 983e
00000070: c738 803d e635 9abe d696 93be dfc7 d83e
-0.22422203 0.31213766 -0.26452008 0.31502706 -0.3052332 0.30135885 0.39720294 -0.2309564
0.38487655 -0.21680263 0.3922145 -0.31377155 0.42807567 -0.25477755 0.278625 0.43734613
0.325368 -0.31730035 0.29366004 -0.23473659 0.3991514 -0.33352345 0.30672592 -0.1513513
0.36618292 0.3899916 0.29321522 0.29827422 0.062608294 -0.30119246 -0.28826016 0.4233999
