bpr/ckpt/ml-1m/stack_0.4186.pth (torch, 13582 bytes, 5 tensors)

base_model_projection.0.weight f4 [64, 7]
0	0xc01c6e43	-2.4442298
1	0xc013c8b0	-2.309124
2	0xc013adbf	-2.3074796
3	0xc0267d90	-2.6014137
4	0xc0341ecc	-2.8143797
5	0xbff537be	-1.9157636
6	0xbfbf61c3	-1.495171
7	0x3eb8edf5	0.36119047
8	0x3e5d00fa	0.21582404
9	0x3e12106e	0.1426408
10	0xbdf38770	-0.11891067
11	0xbe1ebc57	-0.15501533
12	0x3e6c58ce	0.23080751
13	0x3e2609e2	0.16214707
14	0xbeb7c760	-0.358943
15	0x3dd27be8	0.102775395
16	0x3c0701a0	0.0082401335
17	0x3e3178e2	0.1733127
18	0xbeb3e34a	-0.35134345
19	0x3e8550df	0.26038262
20	0xbeada0a2	-0.33911616
21	0xbee16b49	-0.44027165
22	0x3f0d7e70	0.55271053
23	0x3ef0c099	0.4702194
24	0x3f86c61f	1.0529212
25	0x3fba6e6d	1.4564949
26	0x3e16a86f	0.1471269
27	0x3e3f4d0b	0.18681733
28	0x3e28843e	0.16456696
29	0xbea103d9	-0.31448248
30	0xbebc1cc4	-0.36740696
31	0x3eb4ee05	0.35337844
32	0x3e276c5a	0.16349927
33	0xbd85bf8c	-0.06530675
34	0x3d44d000	0.048049927
35	0xbe16b63c	-0.14717954
36	0x3ea33769	0.31878212
37	0xbde39450	-0.11112273
38	0xbe97c89c	-0.2964524
39	0xbcab6d90	-0.020926267
40	0xbd5a17c8	-0.053245336
41	0x3e74c3da	0.23902836
42	0x3e87a08f	0.26489684
43	0x3eb190dd	0.34680834
44	0xbd7b5890	-0.061363757
45	0xbe26c843	-0.16287331
46	0xbeb85481	-0.3600197
47	0xbe27387b	-0.1633014
48	0xbe953ae6	-0.29146498
49	0xbe3fac08	-0.18717968
50	0x3ea0025d	0.31251803
51	0x3e1de802	0.15420535
52	0x3e9d05db	0.3066853
53	0x3e4468ce	0.19180605
54	0xbe1c12d6	-0.1524156
55	0xbe9aa7f6	-0.3020627
56	0xbe049994	-0.1294921
57	0x3eeb37eb	0.459411
58	0x3efb14ef	0.4903941
59	0x3f254cb7	0.6457018
60	0x3f87fd82	1.062424
61	0x3e1d935c	0.15388244
62	0x3e480c66	0.1953598
63	0xc03ad1be	-2.9190516
64	0xc0129a7a	-2.2906785
65	0xc0300e72	-2.7508817
66	0xc0497549	-3.1477835
67	0xc04883a8	-3.1330357
68	0xc029b640	-2.6517487
69	0xc0255dc1	-2.5838473
70	0xc01e6c9b	-2.4753788
71	0xc00cc404	-2.1994638
72	0xc00aee97	-2.1708124
73	0xc017369f	-2.3627088
74	0xc016f3ec	-2.3586378
75	0xc006fe6c	-2.1092787
76	0xc019bd94	-2.402196
77	0x3ddb3273	0.10702982
78	0x3f16cf7a	0.58910334
79	0x3f1c316f	0.6101293
80	0x3f872b48	1.0560083
81	0x3fba7199	1.4565917
82	0x3e097efb	0.13427345
83	0x3e41ede9	0.18938412
84	0x3d9747ec	0.07386765
85	0xbb4e1080	-0.003144294
86	0x3e7d80a6	0.24756107
87	0x3e921c73	0.2853733
88	0x3dcb33fc	0.099220246
89	0xbebab6d8	-0.36467624
90	0xbea3572c	-0.31902444
91	0xbea4b620	-0.321702
92	0xbe8d17ae	-0.2755713
93	0xbe9d12c1	-0.3067837
94	0xbe6a6114	-0.22888595
95	0xbe9c1c13	-0.3049017
96	0x3e15abbe	0.14616296
97	0xbd74c1c8	-0.059755117
98	0xbe13d9fa	-0.1443862
99	0xbca6a260	-0.020341098
100	0x3ec0681f	0.37579438
101	0xbca227a0	-0.019794285
102	0x3ea33e9f	0.31883714
103	0xbe3bbe11	-0.18334223
104	0x3e91e46b	0.28494582
105	0x3eb65e6f	0.35618922
106	0x3f318851	0.6934863
107	0x3ef1e8dd	0.47247973
108	0x3f378b0e	0.71696556
109	0x3f9e75f1	1.2379743
110	0x3e45c59a	0.1931366
111	0x3e3e4355	0.18580373
112	0xbeb1f229	-0.34755066
113	0x3dbdbbb0	0.09264314
114	0xbe6a443f	-0.22877596
115	0x3e3f44d6	0.18678603
116	0xbd93b24c	-0.07211742
117	0xbdaad5e4	-0.08341578
118	0x3c60c4c0	0.013718784
119	0x3e3aa6dd	0.18227716
120	0x3eadc5e0	0.3394003
121	0x3edc3c4c	0.43014753
122	0x3f90b2e4	1.1304593
123	0x3f942a2d	1.1575371
124	0x3e14197f	0.14462851
125	0x3dee892d	0.11647258
126	0xbe7f9608	-0.24959576
127	0x3e89126d	0.2677187
128	0x3e4d855e	0.20070407
129	0xbdd37708	-0.10325438
130	0xbe6cb454	-0.23115665
131	0xbe3cc80c	-0.18435687
132	0xbe496368	-0.19666827
133	0x3ec0ec73	0.37680396
134	0x3e45ffc6	0.19335851
135	0x3ebda4f1	0.37039903
136	0xbe1b48fe	-0.15164563
137	0xbe377510	-0.1791575
138	0xbe9fba2a	-0.3119672
139	0x3ea8ae3f	0.3294544
140	0x3e3e0032	0.18554762
141	0xbe8de656	-0.27714795
142	0xbceee6e0	-0.029162824
143	0xbe1d5d9d	-0.15367742
144	0xbe04f53f	-0.12984179
145	0x3df2b0bc	0.11850116
146	0xbdf3f6b0	-0.11912286
147	0xbec1edcd	-0.3787674
148	0xbe42b9a3	-0.19016127
149	0x3e7971a4	0.24359757
150	0x3d84aaf7	0.064779215
151	0xbe69034c	-0.22755164
152	0x3e996d09	0.29966
153	0x3eac2e3a	0.33629018
154	0x3ec57dd9	0.38572577
155	0x3f1dfe5f	0.61716264
156	0x3ef257f0	0.47332716
157	0x3f93b603	1.153992
158	0x3fa82644	1.3136678
159	0x3dd5c556	0.104380295
160	0x3e4035d6	0.18770537
161	0x3e8f21a6	0.2795536
162	0x3eeac16b	0.4585069
163	0x3f20e7e9	0.62853867
164	0x3f776123	0.96632594
165	0x3f899c8d	1.07509
166	0x3e0f0cd0	0.13969731
167	0x3e26323f	0.16230105
168	0xbe8b00a5	-0.2714893
169	0x3d887478	0.0666284
170	0x3e7c20ca	0.24621883
171	0x3e32fe62	0.17479852
172	0xbe11ea80	-0.14249611
173	0x3d5c9450	0.05385238
174	0x3e30a3b6	0.17249951
175	0xbeaf4fd9	-0.34240606
176	0x3e892871	0.26788667
177	0x3ea2fcff	0.31833646
178	0xbe58237e	-0.21107289
179	0x3d7376e8	0.05943957
180	0x3db6a0ec	0.08917412
181	0x3e3748ca	0.1789886
182	0xbe19922a	-0.14997163
183	0xbe996ee6	-0.2996742
184	0xbe256489	-0.16151632
185	0xbe4157b6	-0.18881115
186	0x3e82d4c1	0.25552943
187	0x3e432796	0.1905807
188	0x3d0b93f8	0.03407666
189	0xc01f7767	-2.4916627
190	0xc00c69fa	-2.1939683
191	0xc00f2911	-2.2368815
192	0xc0260b3a	-2.5944352
193	0xc0285fd6	-2.6308494
194	0xc013868e	-2.3050876
195	0xc01d03be	-2.4533534
196	0x3f078cb5	0.52949077
197	0x3f36aa79	0.7135387
198	0x3f3e1808	0.7425542
199	0x3f5b2106	0.85597265
200	0x3fa9f86f	1.3278941
201	0x3e3122c1	0.17298414
202	0x3e38cf3e	0.18047807
203	0x3eadf363	0.33974752
204	0xbdc29334	-0.09500733
205	0xbeaa00aa	-0.33203632
206	0xbd45cf40	-0.048293352
207	0xbd98d664	-0.07462767
208	0xbeb0e1a8	-0.34547162
209	0xbe88b308	-0.2669909
210	0xbd5cdf9b	-0.053924184
211	0x3f2c0eb2	0.67209923
212	0x3effbccf	0.49948737
213	0x3f9d868a	1.2306683
214	0x3f8d0fdf	1.1020468
215	0x3dc8b2c9	0.097997256
216	0x3e022c60	0.1271224
217	0x3e2dea69	0.16983952
218	0x3eaf25b1	0.34208444
219	0x3ec033e0	0.37539577
220	0x3f8e607e	1.1123197
221	0x3f79a7e5	0.9752181
222	0x3df10a79	0.117695756
223	0x3df26b65	0.1183689
224	0x3e508dd3	0.20366602
225	0x3f1e5ed3	0.6186344
226	0x3f2271c5	0.6345485
227	0x3f353963	0.7079069
228	0x3faeaf08	1.3647165
229	0x3e84e95d	0.25959292
230	0x3eba6d15	0.36411348
231	0x3e043fa1	0.12914898
232	0x3f09836e	0.5371617
233	0x3f4b9760	0.79527855
234	0x3f429ad7	0.76017517
235	0x3fbeaaa6	1.4895828
236	0x3e2531bf	0.16132258
237	0x3e70552b	0.23469989
238	0x3ec6cc5b	0.38827786
239	0x3ed0b5af	0.40763614
240	0x3f47b0a0	0.78003883
241	0x3f82e911	1.0227376
242	0x3fad3e0a	1.3534558
243	0x3e3281fc	0.17432398
244	0x3e057111	0.13031413
245	0x3e67da46	0.22641858
246	0x3d8c9910	0.06865132
247	0xbe9712a0	-0.29506397
248	0x3eba4053	0.363772
249	0x3cd78c60	0.026312053
250	0x3e9ff4c3	0.31241426
251	0xbcc15ec0	-0.02360475
252	0x3d85fc72	0.06542291
253	0x3efdee95	0.49596086
254	0x3f175cac	0.5912578
255	0x3f79abfb	0.97528046

base_model_projection.0.bias f4 [64]
0	0x3ce24f57	0.027625723
1	0xbe1a53e5	-0.15071066
2	0xbe2e8906	-0.17044458
3	0xbb926344	-0.0044674
4	0xbe154594	-0.14577323
5	0xbea99ad1	-0.33125928
6	0xbe746702	-0.2386742
7	0xbe1b8bf9	-0.15190114
8	0xbb491305	-0.0030681503
9	0x3c82df11	0.015975507
10	0x3c9cebf3	0.019155478
11	0x3877ef75	5.91124e-05
12	0xbdadf548	-0.08494049
13	0xbeaf6189	-0.342541
14	0xbe6187f3	-0.22024517
15	0xbc3bc6d7	-0.011460981
16	0xbe721a76	-0.23642907
17	0xbaab6c15	-0.0013078476
18	0xbe8f4608	-0.27983117
19	0xbe4d0f64	-0.20025402
20	0xbe919204	-0.28431714
21	0xbd9f3594	-0.07773891
22	0xbc00db7a	-0.007864827
23	0xbc5e8ef0	-0.013583884
24	0xbe693aab	-0.22776286
25	0xbe0a4503	-0.13502888
26	0xbe2b7dfd	-0.1674728
27	0x3c9b5843	0.018962985
28	0x3c403ac5	0.011732762
29	0xbe5ade6c	-0.2137391
30	0x3b1df42a	0.0024101832
31	0xbb8aa4a3	-0.004231052
32	0xbc1a4e73	-0.009418118
33	0x3bbbab0d	0.005727178
34	0xbb155751	-0.002278764
35	0xbe894095	-0.26807085
36	0xbb811773	-0.003939563
37	0x3c936b5f	0.017995534
38	0x3bd0e7bf	0.0063752825
39	0xbbcfe1b6	-0.0063440455
40	0xbec0c5ce	-0.37650913
41	0x3cc8f01a	0.024528552
42	0xbdea22c8	-0.11432415
43	0xbebe9066	-0.37219542
44	0xbdfdb884	-0.12388709
45	0xbe31d476	-0.17366204
46	0xbdd268d4	-0.10273901
47	0xbac3db0e	-0.0014942603
48	0xbafb7048	-0.0019183243
49	0xbeb0ebe1	-0.3455496
50	0xbeb41286	-0.35170382
51	0x3cd498a2	0.025951687
52	0xbe77b83d	-0.24191375
53	0xbb8b09d1	-0.0042431136
54	0xbdac4a90	-0.08412659
55	0x3ca8bbea	0.020597417
56	0xbda2db91	-0.07952035
57	0x3b0e2ee3	0.0021695427
58	0xba68e8d5	-0.00088847923
59	0x3c66498d	0.014055622
60	0xbe6ddf34	-0.23229676
61	0xbc19aabb	-0.009379084
62	0xbac50f7a	-0.001503452
63	0x3c953247	0.01821245

base_model_projection.3.weight f4 [32, 64]
0	0xc00801d5	-2.1251118
1	0xbdcf360e	-0.10117732
2	0x3d9c47f8	0.076309144
3	0x3dafe98e	0.08589469
4	0xbcda4930	-0.026646227
5	0xbdcde002	-0.10052492
6	0xbb779140	-0.0037775785
7	0x3d8e59be	0.06950711
8	0x3c5e9107	0.013584382
9	0xc00d5768	-2.2084599
10	0xc03442ca	-2.8165765
11	0x3d273e51	0.040830914
12	0xbce429d8	-0.027851984
13	0x3d1e00f8	0.038575143
14	0xbd2c23e4	-0.042026415
15	0x3b756b2a	0.0037447908
16	0x3d64f7e4	0.05590047
17	0x3bc43b13	0.0059884875
18	0x3d82fdc0	0.06396055
19	0x3c126130	0.008934304
20	0xbd9a2240	-0.07526064
21	0x3d826268	0.06366426
22	0x3d0afd15	0.033932764
23	0x3d0cb457	0.034351673
24	0xbd69cf34	-0.05708237
25	0x3d7b313c	0.06132625
26	0x3db5bf48	0.08874375
27	0xc0241524	-2.5637903
28	0x3d5f680d	0.05454259
29	0x3d93ad04	0.072107345
30	0x3d8dc632	0.069225684
31	0x3dddb024	0.10824612
32	0x3d83519c	0.0641205
33	0x3d62b910	0.05535227
34	0x3de84e53	0.11343064
35	0x3b0c3c80	0.0021398365
36	0x3d38bd67	0.045102503
37	0xc00981a6	-2.148538
38	0x3dc48910	0.09596455
39	0xbcec4715	-0.028842488
40	0x3de095e4	0.10966089
41	0xc0130e5f	-2.2977521
42	0x3ddd2bd4	0.10799375
43	0x3d03affc	0.032150254
44	0x3d209f24	0.03921427
45	0xbd0017ac	-0.031272575
46	0x3d4210f4	0.04737945
47	0x3d45cb67	0.048289683
48	0x3d9a96bd	0.07548282
49	0x3db58e6a	0.08865054
50	0xbc29eb40	-0.010371029
51	0xc0166009	-2.3496115
52	0xbc7c2640	-0.015389979
53	0x3c8846f7	0.016635401
54	0x3d796e28	0.06089607
55	0xc0216e09	-2.522341
56	0x3db46efb	0.0881023
57	0x3da68ece	0.081327066
58	0xbc41c97c	-0.011827823
59	0xc023c2a8	-2.5587559
60	0x3c6dec70	0.014521703
61	0xbd5471e8	-0.051866442
62	0x3d5c6b1b	0.05381308
63	0xc02a1bf1	-2.6579554
64	0xbfea95f8	-1.8327017
65	0xbd0b4a90	-0.034006655
66	0x3cd57628	0.026057318
67	0x3d2212ce	0.039568715
68	0xbcacf448	-0.021112576
69	0xbdca84dc	-0.09888622
70	0xbd8e86cc	-0.06959304
71	0x3d5a2fa0	0.053268075
72	0x3ce7fa62	0.028317634
73	0xbff45341	-1.9087907
74	0xc029c05e	-2.6523662
75	0x3caea241	0.021317603
76	0x3da25aba	0.07927461
77	0x3caf1ef0	0.021377057
78	0x3cea3a68	0.028592303
79	0x3d844c37	0.06459849
80	0x3c1e6650	0.009667948
81	0x3cb4987b	0.022045365
82	0x3d6ff054	0.058578804
83	0x3d92f75c	0.07176086
84	0x3c058cb0	0.008151218
85	0x3ccbe114	0.024887599
86	0x3bb5c7b2	0.005547487
87	0x3de462b0	0.11151636
88	0xbcde3438	-0.02712451
89	0xbdd98ab8	-0.106221616
90	0x3dd7705c	0.10519478
91	0xc01a935e	-2.4152446
92	0x3db30fbf	0.08743238
93	0xbdf5da0c	-0.1200448
94	0x3cc52dec	0.024069749
95	0xbc5c3252	-0.013439732
96	0x3e0d3ec8	0.1379348
97	0x3b9ee626	0.004849213
98	0x3da191b5	0.078891195
99	0xba912380	-0.0011073202
100	0x3dd5a5fe	0.10432051
101	0xc00d5e2f	-2.2088735
102	0x3dc747c3	0.09730484
103	0x3d5740be	0.052551977
104	0x3cdad8e8	0.026714757
105	0xc00ee2fb	-2.2326038
106	0xbdc9d9ec	-0.098560184
107	0xbdc82bd0	-0.097739816
108	0xbd061308	-0.032732993
109	0xbdaf95d6	-0.08573501
110	0x3da53bda	0.080680564
111	0x3d3602a9	0.04443613
112	0x3da30422	0.07959773
113	0xbde70b2c	-0.11281428
114	0xbd34a5fc	-0.044103608
115	0xc014609e	-2.318397
116	0xbd81a3d2	-0.06330074
117	0xbccbef22	-0.0248943
118	0xbd7b170c	-0.061301276
119	0xc02570c5	-2.585008
120	0x3e51b739	0.2048005
121	0x3d951608	0.07279593
122	0x3cc2c8d7	0.023777409
123	0xc00fdd36	-2.2478766
124	0x3d58ace4	0.052899256
125	0x3d7129e6	0.058877848
126	0x3d08482a	0.033271946
127	0xc010912d	-2.2588608
128	0xbffe49d6	-1.9866283
129	0x3dceeeac	0.10104117
130	0xbdf22c18	-0.118248165
131	0x3c8551d2	0.016274367
132	0x3a9a5b00	0.0011776388
133	0x3b9951c0	0.004678935
134	0x3d915ea8	0.07098132
135	0xbc809890	-0.015697747
136	0x3d9e17ef	0.07719409
137	0xc002d8be	-2.044479
138	0xc0290cfe	-2.641418
139	0x3d0fba48	0.03508976
140	0x3d1000a8	0.035156876
141	0x3dc445a0	0.095835924
142	0xbdc0fb90	-0.09422982
143	0x3a6bfb4d	0.00090019853
144	0xbd44776c	-0.047965452
145	0xbc9cca77	-0.019139512
146	0xbca92cb0	-0.020651191
147	0xbc606060	-0.013694853
148	0x3db71320	0.08939195
149	0xbdd66f6d	-0.104704715
150	0x3d3cb632	0.046072192
151	0x3d788392	0.06067235
152	0x3df04186	0.117312476
153	0xbd9793b6	-0.074012205
154	0x3ce3b498	0.027796075
155	0xc021db52	-2.5290112
156	0x3dd7d1d1	0.10538066
157	0xbd933f20	-0.071897745
158	0x3d3cc233	0.04608364
159	0x3e3cab4f	0.18424724
160	0x3d9a4aeb	0.07533821
161	0x3da8efbc	0.08248851
162	0x3dd52a62	0.104084745
163	0xbc424640	-0.011857569
164	0x3df3e13f	0.11908197
165	0xc00fd23f	-2.2472074
166	0x3dd8e4e3	0.10590532
167	0x3b47182a	0.0030379393
168	0xbd0be908	-0.034157783
169	0xc023101f	-2.547859
170	0x3d80ebd4	0.06294981
171	0xbda070dc	-0.07834026
172	0xbc2d9440	-0.010594428
173	0xbdebc69a	-0.115124896
174	0xbdb65878	-0.08903593
175	0x3d2f2e09	0.042768512
176	0x3dcb43d0	0.099250436
177	0x3dac7bec	0.08422074
178	0xbdd54890	-0.10414231
179	0xc0192501	-2.3928835
180	0xbd2b6d60	-0.041852355
181	0x3ca6e364	0.0203721
182	0x3d0c7950	0.03429538
183	0xc02762e3	-2.6154106
184	0xbd3e9be8	-0.046535403
185	0x3d5360f0	0.05160612
186	0x3d29b48e	0.041431956
187	0xc0185ae7	-2.3805482
188	0x3d6dabe4	0.058025256
189	0x3c89617c	0.016770117
190	0x3dcb7749	0.09934861
191	0xc02387b6	-2.5551581
192	0xbd29fdff	-0.041501995
193	0x3d829c32	0.06377448
194	0x3d893c90	0.067010045
195	0xbf01499f	-0.5050296
196	0xbd395e3c	-0.045255885
197	0x3d6dffe0	0.05810535
198	0xbd6aa5c8	-0.057287008
199	0xbd3ebe2c	-0.04656808
200	0xbf067587	-0.5252308
201	0xbd8d83ed	-0.069099285
202	0xbdf42c07	-0.1192246
203	0xbec557f7	-0.38543674
204	0xbcf2ce38	-0.029639348
205	0x3c8841d8	0.01663296
206	0xbbd399a0	-0.0064575225
207	0xbf1d2161	-0.6137906
208	0xbddef912	-0.1088735
209	0xbf6abd2d	-0.9169491
210	0x3d8472ea	0.064672306
211	0x3bf4cb00	0.0074704885
212	0xbdc9717a	-0.09836097
213	0x3dcad2b0	0.09903467
214	0xbf783abb	-0.96964616
215	0xbf3d5ba3	-0.7396795
216	0xbcb4aa80	-0.022053957
217	0x3d1e6784	0.03867294
218	0xbce52b90	-0.027974874
219	0xbdb59657	-0.08866566
220	0xbed15956	-0.4088847
221	0xbda64d7e	-0.08120249
222	0xbf14f316	-0.5818342
223	0xbf8d2427	-1.1026658
224	0xbe6789c4	-0.22611147
225	0xbea37ec8	-0.31932664
226	0xbef39b08	-0.47579217
227	0x3dc20f00	0.09475517
228	0xbf3410cf	-0.7033815
229	0xbe3c7d27	-0.18407117
230	0xbe5ffc05	-0.21873482
231	0xbf36d365	-0.7141631
232	0xbdfed708	-0.12443358
233	0xbd958f06	-0.0730267
234	0xbc8e85a0	-0.017397702
235	0x3dcbac52	0.09944977
236	0xbd298d90	-0.04139477
237	0x3d178298	0.03698978
238	0x3d5b3684	0.053518787
239	0xbf5c2acc	-0.860028
240	0xbf296c20	-0.6618061
241	0x3d465888	0.048424274
242	0xbdf23d58	-0.11828107
243	0x3cda7a57	0.026669664
244	0xbd442734	-0.04788895
245	0xbf8d2123	-1.1025738
246	0xbd53f420	-0.051746488
247	0xbd814646	-0.06312232
248	0x3b7bf26c	0.0038444055
249	0xbea00be6	-0.31259078
250	0xbf2b4d43	-0.6691477
251	0xbe01e793	-0.12685995
252	0xbcbe0ad0	-0.023198515
253	0xbf878850	-1.0588474
254	0xbf417072	-0.755622
255	0xbe0c6cc6	-0.13713369

base_model_projection.3.bias f4 [32]
0	0x3dbe3387	0.09287172
1	0x3dd11c90	0.10210526
2	0x3dcde08a	0.10052593
3	0x3dd9f673	0.106427096
4	0x3df19da3	0.11797645
5	0x3e05cdf7	0.1306685
6	0x3ddbeffa	0.10739131
7	0x3dd20924	0.1025565
8	0x3dcf2876	0.10115139
9	0x3dfd2070	0.123597026
10	0x3db9f0aa	0.09079106
11	0x3dde71b1	0.10861529
12	0x3e09be17	0.1345142
13	0x3dbb3e19	0.091427036
14	0x3dcef762	0.10105778
15	0x3dd2c368	0.10291177
16	0x3df7a934	0.1209282
17	0x3dbf35c0	0.09336424
18	0x3e03bcc3	0.12864976
19	0x3de84c49	0.11342675
20	0x3dc4ff24	0.09618977
21	0x3dc20d04	0.09475139
22	0x3dd302ca	0.10303266
23	0x3de700a9	0.11279423
24	0x3de26374	0.110541254
25	0x3de8d338	0.11368412
26	0x3dc17f1a	0.09448071
27	0x3dbc99e6	0.09209041
28	0xbe219136	-0.1577805
29	0x3dd09440	0.101845264
30	0x3dc7fc22	0.097648874
31	0x3dcec892	0.100968495

base_model_projection.6.weight f4 [1, 32]
0	0x3f95cc7e	1.1703031
1	0x3f8a7916	1.0818202
2	0x3f9ddbbf	1.2332686
3	0xbef0e4c3	-0.4704953
4	0xbef5af65	-0.47985378
5	0x3efc4f84	0.49279416
6	0x3f8e799e	1.1130865
7	0x3f8b9ae7	1.0906647
8	0x3fab0ee4	1.3363919
9	0x3f977979	1.1833946
10	0x3fa0c8d1	1.2561284
11	0x3f9fc7b7	1.2482823
12	0xbf032d70	-0.5124121
13	0xbf235c19	-0.63812405
14	0x3f99ee0a	1.2025769
15	0x3f944997	1.1584958
16	0x3f94afee	1.161619
17	0xbf0503a7	-0.519587
18	0xbf04a0ef	-0.51808065
19	0xbf096ce2	-0.53681767
20	0x3fa0e99f	1.2571295
21	0x3f97dd74	1.1864457
22	0x3f8f1507	1.1178292
23	0x3f877ae2	1.0584376
24	0x3f92c932	1.146765
25	0x3f95d302	1.170502
26	0xbf0cd276	-0.5500864
27	0xbf03c813	-0.51477164
28	0xbd723994	-0.059136942
29	0xbef562de	-0.47926992
30	0x3f9bcfba	1.2172768
31	0x3f98c07b	1.193374
